…
True, 'num_buckets': 320, 'max_distance': 800, 'attention_type': 'rel_attention', 'weighted_sum': False, 'predict_layers': '[7,12]', 'separate_label_embeds': True, 'separate_layer_targets': False, 'km4_bpekm7_km12': False, 'bpekm7_km12': False, 'phnkm6_km12': False, 'phnkm7_km12': True, 'km4_phnkm6_km12': False, 'km4_phnkm7_km12': False}
[2024-07-03 14:58:32,611][fairseq_cli.train][INFO] - HubertCtc(
  (w2v_encoder): HubertEncoder(
    (w2v_model): ILSHubertModel(
      (feature_extractor): ConvFeatureExtractionModel(
        (conv_layers): ModuleList(
          (0): Sequential(
            (0): Conv1d(1, 512, kernel_size=(10,), stride=(5,), bias=False)
            (1): Dropout(p=0.0, inplace=False)
            (2): Fp32GroupNorm(512, 512, eps=1e-05, affine=True)
            (3): GELU(approximate='none')
          )
          (1-4): 4 x Sequential(
            (0): Conv1d(512, 512, kernel_size=(3,), stride=(2,), bias=False)
            (1): Dropout(p=0.0, inplace=False)
            (2): GELU(approximate='none')
          )
          (5-6): 2 x Sequential(
            (0): Conv1d(512, 512, kernel_size=(2,), stride=(2,), bias=False)
            (1): Dropout(p=0.0, inplace=False)
            (2): GELU(approximate='none')
          )
        )
      )
      (post_extract_proj): Linear(in_features=512, out_features=768, bias=True)
      (dropout_input): Dropout(p=0.0, inplace=False)
      (dropout_features): Dropout(p=0.1, inplace=False)
      (encoder): TransformerEncoder(
        (pos_conv): Sequential(
          (0): Conv1d(768, 768, kernel_size=(128,), stride=(1,), padding=(64,), groups=16)
          (1): SamePad()
          (2): GELU(approximate='none')
        )
        (layers): ModuleList(
          (0): TransformerSentenceEncoderLayer(
            (self_attn): MultiheadAttention2(
              (dropout_module): FairseqDropout()
              (relative_attention_bias): Embedding(320, 12)
              (k_proj): Linear(in_features=768, out_features=768, bias=True)
              (v_proj): Linear(in_features=768, out_features=768, bias=True)
              (q_proj): Linear(in_features=768, out_features=768, bias=True)
              (out_proj): Linear(in_features=768, out_features=768, bias=True)
            )
            (dropout1): Dropout(p=0.1, inplace=False)
            (dropout2): Dropout(p=0.1, inplace=False)
            (dropout3): Dropout(p=0.1, inplace=False)
            (self_attn_layer_norm): LayerNorm((768,), eps=1e-05, elementwise_affine=True)
            (fc1): Linear(in_features=768, out_features=3072, bias=True)
            (fc2): Linear(in_features=3072, out_features=768, bias=True)
            (final_layer_norm): LayerNorm((768,), eps=1e-05, elementwise_affine=True)
          )
          (1-11): 11 x TransformerSentenceEncoderLayer(
            (self_attn): MultiheadAttention2(
              (dropout_module): FairseqDropout()
              (k_proj): Linear(in_features=768, out_features=768, bias=True)
              (v_proj): Linear(in_features=768, out_features=768, bias=True)
              (q_proj): Linear(in_features=768, out_features=768, bias=True)
              (out_proj): Linear(in_features=768, out_features=768, bias=True)
            )
            (dropout1): Dropout(p=0.1, inplace=False)
            (dropout2): Dropout(p=0.1, inplace=False)
            (dropout3): Dropout(p=0.1, inplace=False)
            (self_attn_layer_norm): LayerNorm((768,), eps=1e-05, elementwise_affine=True)
            (fc1): Linear(in_features=768, out_features=3072, bias=True)
            (fc2): Linear(in_features=3072, out_features=768, bias=True)
            (final_layer_norm): LayerNorm((768,), eps=1e-05, elementwise_affine=True)
          )
        )
        (layer_norm): LayerNorm((768,), eps=1e-05, elementwise_affine=True)
      )
      (layer_norm): LayerNorm((512,), eps=1e-05, elementwise_affine=True)
      (final_proj): None
    )
    (final_dropout): Dropout(p=0.1, inplace=False)
    (proj): Linear(in_features=768, out_features=32, bias=True)
  )
)
[2024-07-03 14:58:32,623][fairseq_cli.train][INFO] - task: HubertPretrainingTask
[2024-07-03 14:58:32,623][fairseq_cli.train][INFO] - model: HubertCtc
[2024-07-03 14:58:32,623][fairseq_cli.train][INFO] - criterion: CtcCriterion
[2024-07-03 14:58:32,625][fairseq_cli.train][INFO] - num. shared model params: 94,400,160 (num. trained: 94,400,160)
[2024-07-03 14:58:32,625][fairseq_cli.train][INFO] - num. expert model params: 0 (num. trained: 0)
…
