…
': 4096, 'multiple_of': 256, 'first_layer': 31, 'n_layers': 32, 'llama_post_norm': False}
[2023-11-21 19:49:04,227][fairseq_cli.train][INFO] - Loading LLaMA checkpoints
[2023-11-21 19:49:04,568][fairseq_cli.train][INFO] - Loaded in 0.34 seconds
[2023-11-21 19:49:04,568][fairseq_cli.train][INFO] - Loading offical base Hubert checkpoints
[2023-11-21 19:49:04,709][fairseq_cli.train][INFO] - Loaded in 0.14 seconds
[2023-11-21 19:49:04,711][fairseq_cli.train][INFO] - LLaMAHubertModel(
  (feature_extractor): ConvFeatureExtractionModel(
    (conv_layers): ModuleList(
      (0): Sequential(
        (0): Conv1d(1, 512, kernel_size=(10,), stride=(5,), bias=False)
        (1): Dropout(p=0.0, inplace=False)
        (2): Fp32GroupNorm(512, 512, eps=1e-05, affine=True)
        (3): GELU(approximate='none')
      )
      (1-4): 4 x Sequential(
        (0): Conv1d(512, 512, kernel_size=(3,), stride=(2,), bias=False)
        (1): Dropout(p=0.0, inplace=False)
        (2): GELU(approximate='none')
      )
      (5-6): 2 x Sequential(
        (0): Conv1d(512, 512, kernel_size=(2,), stride=(2,), bias=False)
        (1): Dropout(p=0.0, inplace=False)
        (2): GELU(approximate='none')
      )
    )
  )
  (post_extract_proj): Linear(in_features=512, out_features=768, bias=True)
  (dropout_input): Dropout(p=0.1, inplace=False)
  (dropout_features): Dropout(p=0.1, inplace=False)
  (encoder): TransformerEncoder(
    (pos_conv): Sequential(
      (0): Conv1d(768, 768, kernel_size=(128,), stride=(1,), padding=(64,), groups=16)
      (1): SamePad()
      (2): GELU(approximate='none')
    )
    (layers): ModuleList(
      (0-11): 12 x TransformerSentenceEncoderLayer(
        (self_attn): MultiheadAttention(
          (dropout_module): FairseqDropout()
          (k_proj): Linear(in_features=768, out_features=768, bias=True)
          (v_proj): Linear(in_features=768, out_features=768, bias=True)
          (q_proj): Linear(in_features=768, out_features=768, bias=True)
          (out_proj): Linear(in_features=768, out_features=768, bias=True)
        )
        (dropout1): Dropout(p=0.1, inplace=False)
        (dropout2): Dropout(p=0.0, inplace=False)
        (dropout3): Dropout(p=0.1, inplace=False)
        (self_attn_layer_norm): LayerNorm((768,), eps=1e-05, elementwise_affine=True)
        (fc1): Linear(in_features=768, out_features=3072, bias=True)
        (fc2): Linear(in_features=3072, out_features=768, bias=True)
        (final_layer_norm): LayerNorm((768,), eps=1e-05, elementwise_affine=True)
      )
    )
    (layer_norm): LayerNorm((768,), eps=1e-05, elementwise_affine=True)
  )
  (llama): LLaMATransformer(
    (layers): ModuleList(
      (0): Block(
        (rms_1): LitRMSNorm()
        (attn): Attention(
          (c_attn): Linear(in_features=4096, out_features=12288, bias=False)
          (c_proj): Linear(in_features=4096, out_features=4096, bias=False)
        )
        (rms_2): LitRMSNorm()
        (mlp): MLP(
          (c_fc1): Linear(in_features=4096, out_features=11008, bias=False)
          (c_fc2): Linear(in_features=4096, out_features=11008, bias=False)
          (c_proj): Linear(in_features=11008, out_features=4096, bias=False)
        )
      )
    )
    (norm): LitRMSNorm()
  )
  (llama_dim_mapper1): Linear(in_features=768, out_features=4096, bias=False)
  (llama_dim_mapper2): Linear(in_features=4096, out_features=768, bias=False)
  (layer_norm): LayerNorm((512,), eps=1e-05, elementwise_affine=True)
  (final_proj): Linear(in_features=768, out_features=256, bias=True)
)
[2023-11-21 19:49:04,712][fairseq_cli.train][INFO] - task: HubertPretrainingTask
[2023-11-21 19:49:04,712][fairseq_cli.train][INFO] - model: LLaMAHubertModel
[2023-11-21 19:49:04,712][fairseq_cli.train][INFO] - criterion: HubertCriterion
[2023-11-21 19:49:04,713][fairseq_cli.train][INFO] - num. shared model params: 303,376,512 (num. trained: 100,989,056)
…
